…
    G_regularizer_clipstep: None
    G_param_strict: True
    E_param_strict: True
    checkpoint_test: 5000
    checkpoint_save: 5000
    checkpoint_print: 200
    F_feature_layer: 34
    F_weights: 1.0
    F_lossfn_type: l1
    F_use_input_norm: True
    F_use_range_norm: False
  ]
  opt_path: options/train_msrresnet_psnr.json
  is_train: True
  find_unused_parameters: True
  num_gpu: 1
  rank: 0
  world_size: 1

22-10-28 16:46:46.114 : Number of train images: 800, iters: 25
22-10-28 16:46:47.457 : 
Networks name: MSRResNet0
Params number: 1332928
Net structure:
MSRResNet0(
  (model): Sequential(
    (0): Conv2d(3, 64, kernel_size=(3, 3), stride=(1, 1), padding=(1, 1))
    (1): Identity + 
    |Sequential(
    |  (0): ResBlock(
    |    (res): Sequential(
    |      (0): Conv2d(64, 64, kernel_size=(3, 3), stride=(1, 1), padding=(1, 1))
    |      (1): ReLU(inplace=True)
    |      (2): Conv2d(64, 64, kernel_size=(3, 3), stride=(1, 1), padding=(1, 1))
    |    )
    |  )
    |  (1): ResBlock(
    |    (res): Sequential(
    |      (0): Conv2d(64, 64, kernel_size=(3, 3), stride=(1, 1), padding=(1, 1))
    |      (1): ReLU(inplace=True)
    |      (2): Conv2d(64, 64, kernel_size=(3, 3), stride=(1, 1), padding=(1, 1))
    |    )
    |  )
    |  (2): ResBlock(
    |    (res): Sequential(
    |      (0): Conv2d(64, 64, kernel_size=(3, 3), stride=(1, 1), padding=(1, 1))
    |      (1): ReLU(inplace=True)
    |      (2): Conv2d(64, 64, kernel_size=(3, 3), stride=(1, 1), padding=(1, 1))
    |    )
    |  )
    |  (3): ResBlock(
    |    (res): Sequential(
    |      (0): Conv2d(64, 64, kernel_size=(3, 3), stride=(1, 1), padding=(1, 1))
    |      (1): ReLU(inplace=True)
    |      (2): Conv2d(64, 64, kernel_size=(3, 3), stride=(1, 1), padding=(1, 1))
    |    )
    |  )
    |  (4): ResBlock(
    |    (res): Sequential(
    |      (0): Conv2d(64, 64, kernel_size=(3, 3), stride=(1, 1), padding=(1, 1))
    |      (1): ReLU(inplace=True)
    |      (2): Conv2d(64, 64, kernel_size=(3, 3), stride=(1, 1), padding=(1, 1))
    |    )
    |  )
    |  (5): ResBlock(
    |    (res): Sequential(
    |      (0): Conv2d(64, 64, kernel_size=(3, 3), stride=(1, 1), padding=(1, 1))
    |      (1): ReLU(inplace=True)
    |      (2): Conv2d(64, 64, kernel_size=(3, 3), stride=(1, 1), padding=(1, 1))
    |    )
    |  )
    |  (6): ResBlock(
    |    (res): Sequential(
    |      (0): Conv2d(64, 64, kernel_size=(3, 3), stride=(1, 1), padding=(1, 1))
    |      (1): ReLU(inplace=True)
    |      (2): Conv2d(64, 64, kernel_size=(3, 3), stride=(1, 1), padding=(1, 1))
    |    )
    |  )
    |  (7): ResBlock(
    |    (res): Sequential(
    |      (0): Conv2d(64, 64, kernel_size=(3, 3), stride=(1, 1), padding=(1, 1))
    |      (1): ReLU(inplace=True)
    |      (2): Conv2d(64, 64, kernel_size=(3, 3), stride=(1, 1), padding=(1, 1))
    |    )
    |  )
    |  (8): ResBlock(
    |    (res): Sequential(
    |      (0): Conv2d(64, 64, kernel_size=(3, 3), stride=(1, 1), padding=(1, 1))
    |      (1): ReLU(inplace=True)
    |      (2): Conv2d(64, 64, kernel_size=(3, 3), stride=(1, 1), padding=(1, 1))
    |    )
    |  )
    |  (9): ResBlock(
    |    (res): Sequential(
    |      (0): Conv2d(64, 64, kernel_size=(3, 3), stride=(1, 1), padding=(1, 1))
    |      (1): ReLU(inplace=True)
    |      (2): Conv2d(64, 64, kernel_size=(3, 3), stride=(1, 1), padding=(1, 1))
    |    )
    |  )
    |  (10): ResBlock(
    |    (res): Sequential(
    |      (0): Conv2d(64, 64, kernel_size=(3, 3), stride=(1, 1), padding=(1, 1))
    |      (1): ReLU(inplace=True)
    |      (2): Conv2d(64, 64, kernel_size=(3, 3), stride=(1, 1), padding=(1, 1))
    |    )
    |  )
    |  (11): ResBlock(
    |    (res): Sequential(
    |      (0): Conv2d(64, 64, kernel_size=(3, 3), stride=(1, 1), padding=(1, 1))
    |      (1): ReLU(inplace=True)
    |      (2): Conv2d(64, 64, kernel_size=(3, 3), stride=(1, 1), padding=(1, 1))
    |    )
    |  )
    |  (12): ResBlock(
    |    (res): Sequential(
    |      (0): Conv2d(64, 64, kernel_size=(3, 3), stride=(1, 1), padding=(1, 1))
    |      (1): ReLU(inplace=True)
    |      (2): Conv2d(64, 64, kernel_size=(3, 3), stride=(1, 1), padding=(1, 1))
    |    )
    |  )
    |  (13): ResBlock(
    |    (res): Sequential(
    |      (0): Conv2d(64, 64, kernel_size=(3, 3), stride=(1, 1), padding=(1, 1))
    |      (1): ReLU(inplace=True)
    |      (2): Conv2d(64, 64, kernel_size=(3, 3), stride=(1, 1), padding=(1, 1))
    |    )
    |  )
    |  (14): ResBlock(
    |    (res): Sequential(
    |      (0): Conv2d(64, 64, kernel_size=(3, 3), stride=(1, 1), padding=(1, 1))
    |      (1): ReLU(inplace=True)
    |      (2): Conv2d(64, 64, kernel_size=(3, 3), stride=(1, 1), padding=(1, 1))
    |    )
    |  )
    |  (15): ResBlock(
    |    (res): Sequential(
    |      (0): Conv2d(64, 64, kernel_size=(3, 3), stride=(1, 1), padding=(1, 1))
    |      (1): ReLU(inplace=True)
    |      (2): Conv2d(64, 64, kernel_size=(3, 3), stride=(1, 1), padding=(1, 1))
    |    )
    |  )
    |  (16): Conv2d(64, 64, kernel_size=(3, 3), stride=(1, 1), padding=(1, 1))
    |)
    (2): Upsample(scale_factor=2.0, mode=nearest)
    (3): Conv2d(64, 64, kernel_size=(3, 3), stride=(1, 1), padding=(1, 1))
    (4): ReLU(inplace=True)
    (5): Upsample(scale_factor=2.0, mode=nearest)
    (6): Conv2d(64, 64, kernel_size=(3, 3), stride=(1, 1), padding=(1, 1))
    (7): ReLU(inplace=True)
    (8): Conv2d(64, 64, kernel_size=(3, 3), stride=(1, 1), padding=(1, 1))
    (9): ReLU(inplace=True)
    (10): Conv2d(64, 3, kernel_size=(3, 3), stride=(1, 1), padding=(1, 1), bias=False)
  )
)

22-10-28 16:46:47.486 : 
 |  mean  |  min   |  max   |  std   || shape               
 | -0.000 | -0.074 |  0.087 |  0.025 | torch.Size([64, 3, 3, 3]) || model.0.weight
 |  0.000 |  0.000 |  0.000 |  0.000 | torch.Size([64]) || model.0.bias
 | -0.000 | -0.033 |  0.034 |  0.008 | torch.Size([64, 64, 3, 3]) || model.1.sub.0.res.0.weight
…
